test/testModel.pt (torch, 2787 bytes, 2 tensors)

lin0.weight f4 [20, 10]
00000000: 8479 c5bd 6a74 1e3e 2484 32be 2a76 6abe
00000010: beeb 053e fbd5 a13e 717d 9b3e 8ab4 3bbe
00000020: f19e a13e a0a3 9a3d 4060 8cbe bae7 6f3e
00000030: c22a 173e d173 1abe 30e0 fc3c 352c 9c3e
00000040: 34e5 a4bd d6dc 92bd d53a 98be c732 40be
00000050: 92ec a9bd 6824 0c3e 6445 973d 2e9e 0f3e
00000060: 2e80 4bbe eb30 21be c8a2 20be 42e7 183e
00000070: e040 14bd c2ea 63be 9ed2 453e fd03 833e
00000080: 60e6 fbbc 30c9 933c 8715 9cbe b1ad 8b3e
00000090: 4568 3bbe c004 57bd ffd9 8c3e a704 1cbe
000000a0: f2b5 733e 7404 203e 585f cebd fa43 5a3e
000000b0: 37f3 80be ade3 11be 60c6 573c 684b 01bd
000000c0: 008a a5ba e669 613e fceb 863d 22b0 98be
000000d0: 4f67 9f3e 762b 68be c0c9 253e 2652 4c3e
000000e0: d43a b33d aa45 55be 8ef0 693e 9643 73be
000000f0: 0ed7 e2bd a893 123e c0fa 5ebe 029c 37be
00000100: bc1c 91be f0a7 b83d 60b8 91be 92b7 7ebe
00000110: 6027 b73d 4056 373c 48b9 9fbd 3082 d93d
00000120: 08d3 6ebe 365f 053e 10b7 9d3c d8cb edbd
00000130: 0671 d0bd 34cc 2a3e 80ee d2bd c472 3dbe
00000140: 5745 8d3e b2fc 523e c0fd bebd 4a5e 633e
00000150: c07b b63c 1dce 9ebe 4001 2ebc 4e91 443e
00000160: 20b8 59bc 660f cfbd dca6 58be 165c 4b3e
00000170: d090 973c bd15 93be f621 2fbe 758e 00be
00000180: 1f7a a13e 80ce 98be 69bc 34be b7ef 15be
00000190: 0218 483e f1c6 25be 837f 7abe 37ac 2cbe
000001a0: e006 e83d 24de f13d 5723 9c3e 5fd7 933e
000001b0: 207e 113d 146b a7bd e567 9e3e 9893 463d
000001c0: 2ba1 843e 9809 713d 0002 e03d e2cb 3e3e
000001d0: 9eb9 78be be75 8abe c8ba 50bd 4781 41be
000001e0: 00ef f73d cecd 85be 20c2 543c a0c4 fa3d
000001f0: 4843 42bd d687 133e 107a fb3d 3022 8a3c
00000200: 300a 473d 2fec 933e bebe 103e a630 8abe
00000210: 1200 6dbe 26a2 3c3e f0d3 4fbd 4945 873e
00000220: a854 94be c0f8 f03b 5e95 8dbe a147 18be
00000230: f96f 27be 64bc a0bd 6294 a9bd 640d 833d
00000240: 0e4e 8cbe ae41 4a3e 4c14 c13d c670 513e
00000250: b2f2 113e 50e7 913c 955e 26be 3b4e 84be
00000260: 8dac 17be 9163 45be c383 33be 58b0 3b3d
00000270: bb9e 1bbe e217 3a3e fc87 273e 6114 903e
00000280: a76d 8cbe 7cf2 eebd 35e9 963e 807f a23d
00000290: c1fd 8f3e 6007 34bd 1200 26be ee5f 423e
000002a0: 90d2 b0bc 2fba 38be 0aee 4a3e ea9d 4abe
000002b0: a08d 83be 526d 6b3e bcfa 20be a645 f1bd
000002c0: dfd0 9a3e d8a1 1b3d 844d bb3d d06f 1dbe
000002d0: 2de6 913e 00c0 1d3b 7098 05be 3918 1bbe
000002e0: 6411 17be 70cd 723d 2a6b 93be 7cd1 88bd
000002f0: f8ff 50bd 8093 333c c4cd 91be 3030 a13c
00000300: 2ade 03be cc7f abbd 6cc6 9dbe f652 8cbd
00000310: 048f 55be 6caf 5cbe c092 0d3c b019 c3bd
-0.09642318 0.15474096 -0.1743322 -0.22896639 0.1307821 0.31608567 0.30369142 -0.18330589
0.31566575 0.0755074 -0.27417183 0.2342824 0.14762405 -0.15083243 0.03086862 0.30502477
-0.080515295 -0.07171027 -0.29732385 -0.1876937 -0.08297075 0.13685763 0.07386282 0.14025185
-0.19873115 -0.15741317 -0.15687096 0.14931968 -0.036194682 -0.22257522 0.19318625 0.2558898
-0.0307495 0.01804027 -0.30485174 0.27280954 -0.18301494 -0.052494764 0.27510068 -0.1523615
0.23799875 0.15626699 -0.10076779 0.21314994 -0.25185558 -0.14247008 0.013169855 -0.031566054
-0.0012629628 0.22013053 0.06587979 -0.2982188 0.31133506 -0.22672829 0.16190243 0.19953212
0.08751455 -0.20827356 0.2284567 -0.2375625 -0.11076175 0.14314139 -0.21775341 -0.17930606
-0.28342235 0.090164065 -0.2846098 -0.24874714 0.08943057 0.011189997 -0.077990115 0.106205344
-0.2332269 0.13024601 0.01925233 -0.11611146 -0.101778075 0.1667946 -0.102993965 -0.18500811
0.27591965 0.20604208 -0.09325743 0.22203937 0.022275805 -0.31016627 -0.010620415 0.19196054
-0.013288528 -0.10110359 -0.21157402 0.19859347 0.01850167 -0.28727522 -0.17102799 -0.12554343
0.31538484 -0.29845047 -0.17649998 -0.14642225 0.19540408 -0.16189171 -0.24462704 -0.1686257
0.11329436 0.11809948 0.30495712 0.28875253 0.035520673 -0.081747204 0.3093864 0.0484806
0.2590421 0.05884704 0.109378815 0.18632463 -0.24289557 -0.27042955 -0.05095938 -0.18896972
0.121061325 -0.2613358 0.012985736 0.122445345 -0.047427446 0.14407286 0.12279141 0.016862005
0.0485937 0.2889113 0.14135262 -0.2699024 -0.23144558 0.1842123 -0.05073923 0.26420048
-0.28970838 0.007353872 -0.2765302 -0.14871074 -0.16351308 -0.07848433 -0.08280255 0.063990384
-0.274033 0.19751617 0.094276994 0.20453176 0.14252737 0.017810494 -0.16247018 -0.25840935
-0.14811917 -0.19276263 -0.17530732 0.04582247 -0.1519727 0.18173173 0.16360468 0.28140548
-0.27427408 -0.11667344 0.29474798 0.07934475 0.28123286 -0.043952346 -0.16210964 0.18981907
-0.021584779 -0.18039773 0.19817367 -0.19786802 -0.2569399 0.22990921 -0.15720648 -0.117808625
0.3023748 0.037996143 0.09145644 -0.15374684 0.28495923 0.002407074 -0.13046432 -0.15145959
-0.14752728 0.05927795 -0.28792697 -0.06680581 -0.05102536 0.01096046 -0.284773 0.019676298
-0.12877718 -0.08373985 -0.30815446 -0.06851761 -0.20855337 -0.21551293 0.008640945 -0.09526384

lin1.weight f4 [6, 20]
00000000: 10b8 94bd 3001 353d 609e a93d fcba 9c3d
00000010: fc8c 173e 7203 bdbd f00c 233e 105e cc3c
00000020: d8d5 d33d 0018 fa3c 4269 a7bd 6e4a a7bd
00000030: 475b 26be 60fc 8abc 9840 9fbd d4b8 b9bd
00000040: fe91 08be 9078 1d3d 6a9f 283e c646 4e3e
00000050: 4074 223b e098 e5bb 0079 ae3a e0e2 393e
00000060: bea8 17be f6e9 4abe d2c0 8abd 68d9 163e
00000070: 32d4 253e 0c6d 11bd 0088 3dbe 4aaf 413e
00000080: 68e2 29bd 2cc3 33be 4e96 24be 30ab 22bd
00000090: d0e5 a73d a87d 213e 02bb eebd d082 c43d
000000a0: a685 eebd d887 c13d 4015 5abc 53d0 19be
000000b0: 806f f03d da2a 483e 11be 61be d0ae eabd
000000c0: a4ef 58be cc82 d23d 90d0 5c3c 8075 4d3d
000000d0: a07a f03d b067 fc3c 2e6c 9fbd 3029 473e
000000e0: a8d1 613e f2b2 153e 88c9 20bd 60a8 55be
000000f0: 70c6 ae3d 6643 583e 90cd d03d 025e 26be
00000100: 2cf8 303e fe56 243e 6248 0d3e 908f 71bc
00000110: 4043 3cbb 40d6 fd3c 9060 70bc 024e 0e3e
00000120: 6607 a9bd 58fe f23d 999d 55be 92ba 22be
00000130: d80b 0abe 8fe3 55be 6810 333e ace9 c03d
00000140: b416 76bd dcd8 1dbe a895 8a3d 7a8a 433e
00000150: e62f a4bd 9f59 ebbd c001 733d 7c7f 0d3e
00000160: a6ad 4cbe 8628 623e 1289 cebd 20e7 cfbb
00000170: c0e7 64bc 5001 793d 1492 b13d 10e7 4bbe
00000180: f8eb c63d 765b 2a3e 20e7 443d 10c4 d3bc
00000190: c816 77bd 1cf6 5e3e f850 753d be6f 95bd
000001a0: 1cad 0cbd fad7 44be a89c 473d 9cc3 a7bd
000001b0: 50b2 aa3d b8e4 d1bc f497 2fbe 1863 c4bc
000001c0: 343e 5ebd 807a 59be f090 493e ac40 9f3d
000001d0: 9018 bf3d 480c fb3d 5c2b e53d d52a 5cbe
-0.0726167 0.044190586 0.08282161 0.07652852 0.14799875 -0.09229173 0.15922904 0.024947196
0.10343522 0.030529022 -0.08174373 -0.08168493 -0.16245757 -0.016966045 -0.07775992 -0.09068456
-0.13336942 0.038445055 0.16467062 0.20144185 0.0024788529 -0.0070067495 0.0013311207 0.18152952
-0.14810464 -0.19815812 -0.06775059 0.14731371 0.16194227 -0.035504386 -0.18508911 0.18914524
-0.041475683 -0.17554921 -0.16072962 -0.03971404 0.0819813 0.1577059 -0.11656763 0.09595263
-0.11646585 0.09449738 -0.01331073 -0.15020876 0.11740017 0.19547597 -0.22045161 -0.11459124
-0.21185166 0.10278854 0.01347746 0.050160885 0.11742139 0.03081116 -0.077843055 0.19449306
0.22052634 0.14619043 -0.039254695 -0.20865011 0.08533943 0.2111946 0.10195458 -0.16246799
0.1728217 0.1604881 0.13797143 -0.014743701 -0.0028726608 0.030985951 -0.01467146 0.13896945
-0.08253364 0.118649185 -0.208609 -0.15891483 -0.1348108 -0.20887588 0.17486727 0.094195694
-0.060080245 -0.15414757 0.06766826 0.19095793 -0.080169484 -0.11491703 0.05932784 0.13818163
-0.19988117 0.22085771 -0.10084738 -0.006344691 -0.013971269 0.060792267 0.0867044 -0.19912362
0.09712976 0.16636452 0.04807198 -0.025850326 -0.06032446 0.21773571 0.05989167 -0.07296704
-0.034344777 -0.19223014 0.048733383 -0.081916064 0.08334792 -0.025621757 -0.1714781 -0.023973033
-0.05425854 -0.21238136 0.19684196 0.07776007 0.09330857 0.12258202 0.11189911 -0.21500714
